Model: "sequential_1"
_________________________________________________________________
Layer (type)                 Output Shape              Param #   
=================================================================
conv2d_1 (Conv2D)            (None, 62, 62, 32)        896       
_________________________________________________________________
max_pooling2d_1 (MaxPooling2 (None, 31, 31, 32)        0         
_________________________________________________________________
conv2d_2 (Conv2D)            (None, 29, 29, 32)        9248      
_________________________________________________________________
max_pooling2d_2 (MaxPooling2 (None, 14, 14, 32)        0         
_________________________________________________________________
flatten_1 (Flatten)          (None, 6272)              0         
_________________________________________________________________
dense_1 (Dense)              (None, 128)               802944    
_________________________________________________________________
dense_2 (Dense)              (None, 64)                8256      
_________________________________________________________________
dense_3 (Dense)              (None, 1)                 65        
=================================================================
Total params: 821,409
Trainable params: 821,409
Non-trainable params: 0
_________________________________________________________________
Found 280 images belonging to 2 classes.
Found 38 images belonging to 2 classes.
Epoch 1/1

  1/100 [..............................] - ETA: 15:14 - loss: 0.6951 - accuracy: 0.3438
  2/100 [..............................] - ETA: 9:35 - loss: 0.6920 - accuracy: 0.4219 
…
